{"Layers": [{
  "Name": "A-N-0-Conv + A-N-1-Relu",
  "LayerType": "CaskConvolution",
  "Inputs": [
  {
    "Name": "tensorX",
    "Location": "Device",
    "Dimensions": [1,1,28,28],
    "Format/Datatype": "Row major linear FP32"
  }],
  "Outputs": [
  {
    "Name": "A-V-1-Relu",
    "Location": "Device",
    "Dimensions": [1,32,28,28],
    "Format/Datatype": "Row major linear FP32"
  }],
  "ParameterType": "Convolution",
  "Kernel": [5,5],
  "PaddingMode": "kEXPLICIT_ROUND_DOWN",
  "PrePadding": [2,2],
  "PostPadding": [2,2],
  "Stride": [1,1],
  "Dilation": [1,1],
  "OutMaps": 32,
  "Groups": 1,
  "Weights": {"Type": "Float", "Count": 800},
  "Bias": {"Type": "Float", "Count": 32},
  "HasSparseWeights": 0,
  "HasDynamicFilter": 0,
  "HasDynamicBias": 0,
  "HasResidual": 0,
  "ConvXAsActInputIdx": -1,
  "BiasAsActInputIdx": -1,
  "ResAsActInputIdx": -1,
  "Activation": "RELU",
  "HasBias": 1,
  "HasReLU": 1,
  "TacticName": "maxwell_scudnn_128x32_relu_small_nn_v0",
  "TacticValue": "0x632674f65e3422ae"
},{
  "Name": "A-N-2-MaxPool",
  "LayerType": "CaskPooling",
  "Inputs": [
  {
    "Name": "A-V-1-Relu",
    "Location": "Device",
    "Dimensions": [1,32,28,28],
    "Format/Datatype": "Row major linear FP32"
  }],
  "Outputs": [
  {
    "Name": "A-V-2-MaxPool",
    "Location": "Device",
    "Dimensions": [1,32,14,14],
    "Format/Datatype": "Row major linear FP32"
  }],
  "ParameterType": "Pooling",
  "PoolingType": "MAX",
  "WindowSize": [2,2],
  "PaddingMode": "kEXPLICIT_ROUND_DOWN",
  "PrePadding": [0,0],
  "PostPadding": [0,0],
  "Stride": [2,2],
  "BlendFactor": 0,
  "AverageCountExcludesPadding": 1,
  "TacticName": "sm50_xmma_pooling_tiled_FP32NCHW_kMAX_tP2_tQ16_tR2_tS2_tU2_tV2_tUnroll8_tThreads128",
  "TacticValue": "0x2802f161f2fbd8fa"
},{
  "Name": "A-N-3-Conv + A-N-4-Relu",
  "LayerType": "FusedConvActConvolution",
  "Inputs": [
  {
    "Name": "A-V-2-MaxPool",
    "Location": "Device",
    "Dimensions": [1,32,14,14],
    "Format/Datatype": "Row major linear FP32"
  }],
  "Outputs": [
  {
    "Name": "A-V-4-Relu",
    "Location": "Device",
    "Dimensions": [1,64,14,14],
    "Format/Datatype": "Row major linear FP32"
  }],
  "ParameterType": "Convolution",
  "Kernel": [5,5],
  "PaddingMode": "kEXPLICIT_ROUND_DOWN",
  "PrePadding": [2,2],
  "PostPadding": [2,2],
  "Stride": [1,1],
  "Dilation": [1,1],
  "OutMaps": 64,
  "Groups": 1,
  "Weights": {"Type": "Float", "Count": 51200},
  "Bias": {"Type": "Float", "Count": 64},
  "HasSparseWeights": 0,
  "HasDynamicFilter": 0,
  "HasDynamicBias": 0,
  "HasResidual": 0,
  "ConvXAsActInputIdx": -1,
  "BiasAsActInputIdx": -1,
  "ResAsActInputIdx": -1,
  "Activation": "RELU",
  "HasBias": 1,
  "ConvolutionTacticIndex": 161,
  "TacticValue": "0x0000000000a1ffff"
},{
  "Name": "A-N-5-MaxPool",
  "LayerType": "CaskPooling",
  "Inputs": [
  {
    "Name": "A-V-4-Relu",
    "Location": "Device",
    "Dimensions": [1,64,14,14],
    "Format/Datatype": "Row major linear FP32"
  }],
  "Outputs": [
  {
    "Name": "A-V-5-MaxPool",
    "Location": "Device",
    "Dimensions": [1,64,7,7],
    "Format/Datatype": "Row major linear FP32"
  }],
  "ParameterType": "Pooling",
  "PoolingType": "MAX",
  "WindowSize": [2,2],
  "PaddingMode": "kEXPLICIT_ROUND_DOWN",
  "PrePadding": [0,0],
  "PostPadding": [0,0],
  "Stride": [2,2],
  "BlendFactor": 0,
  "AverageCountExcludesPadding": 1,
  "TacticName": "sm50_xmma_pooling_tiled_FP32NCHW_kMAX_tP2_tQ16_tR2_tS2_tU2_tV2_tUnroll8_tThreads128",
  "TacticValue": "0x2802f161f2fbd8fa"
},{
  "Name": "A-N-6-Transpose + A-N-7-Reshape + reshape_before_A-N-8-MatMul",
  "LayerType": "Shuffle",
  "Inputs": [
  {
    "Name": "A-V-5-MaxPool",
    "Location": "Device",
    "Dimensions": [1,64,7,7],
    "Format/Datatype": "Row major linear FP32"
  }],
  "Outputs": [
  {
    "Name": "reshape_before_A-N-8-MatMul_out_tensor",
    "Location": "Device",
    "Dimensions": [1,3136,1,1],
    "Format/Datatype": "Row major linear FP32"
  }],
  "ParameterType": "Shuffle",
  "FirstTranspose": [0,2,3,1],
  "Reshape": [1,3136,1,1],
  "SecondTranspose": [0,1,2,3],
  "ZeroIsPlaceholder": 0,
  "TacticValue": "0x0000000000000000"
},{
  "Name": "A-N-8-MatMul + A-N-10-Relu",
  "LayerType": "CublasConvolution",
  "Inputs": [
  {
    "Name": "reshape_before_A-N-8-MatMul_out_tensor",
    "Location": "Device",
    "Dimensions": [1,3136,1,1],
    "Format/Datatype": "Row major linear FP32"
  }],
  "Outputs": [
  {
    "Name": "A-N-10-Relu_out_tensor",
    "Location": "Device",
    "Dimensions": [1,1024,1,1],
    "Format/Datatype": "Row major linear FP32"
  }],
  "ParameterType": "Convolution",
  "Kernel": [1,1],
  "PaddingMode": "kEXPLICIT_ROUND_DOWN",
  "PrePadding": [0,0],
  "PostPadding": [0,0],
  "Stride": [1,1],
  "Dilation": [1,1],
  "OutMaps": 1024,
  "Groups": 1,
  "Weights": {"Type": "Float", "Count": 3211264},
  "Bias": {"Type": "Float", "Count": 1024},
  "HasSparseWeights": 0,
  "HasDynamicFilter": 0,
  "HasDynamicBias": 0,
  "HasResidual": 0,
  "ConvXAsActInputIdx": -1,
  "BiasAsActInputIdx": -1,
  "ResAsActInputIdx": -1,
  "Activation": "RELU",
  "HasBias": 1,
  "CublasConvolutionTacticIndex": 1,
  "TacticValue": "0x0000000000000001"
},{
  "Name": "A-N-11-MatMul",
  "LayerType": "CudnnConvolution",
  "Inputs": [
  {
    "Name": "A-N-10-Relu_out_tensor",
    "Location": "Device",
    "Dimensions": [1,1024,1,1],
    "Format/Datatype": "Row major linear FP32"
  }],
  "Outputs": [
  {
    "Name": "A-N-11-MatMul_out_tensor",
    "Location": "Device",
    "Dimensions": [1,10,1,1],
    "Format/Datatype": "Row major linear FP32"
  }],
  "ParameterType": "Convolution",
  "Kernel": [1,1],
  "PaddingMode": "kEXPLICIT_ROUND_DOWN",
  "PrePadding": [0,0],
  "PostPadding": [0,0],
  "Stride": [1,1],
  "Dilation": [1,1],
  "OutMaps": 10,
  "Groups": 1,
  "Weights": {"Type": "Float", "Count": 10240},
  "Bias": {"Type": "Float", "Count": 10},
  "HasSparseWeights": 0,
  "HasDynamicFilter": 0,
  "HasDynamicBias": 0,
  "HasResidual": 0,
  "ConvXAsActInputIdx": -1,
  "BiasAsActInputIdx": -1,
  "ResAsActInputIdx": -1,
  "Activation": "NONE",
  "HasBias": 1,
  "TacticValue": "0x0000000000000001"
},{
  "Name": "reshape_after_A-N-11-MatMul",
  "LayerType": "NoOp",
  "Inputs": [
  {
    "Name": "A-N-11-MatMul_out_tensor",
    "Location": "Device",
    "Dimensions": [1,10,1,1],
    "Format/Datatype": "Row major linear FP32"
  }],
  "Outputs": [
  {
    "Name": "A-V-12-Add",
    "Location": "Device",
    "Dimensions": [1,10],
    "Format/Datatype": "Row major linear FP32"
  }],
  "TacticValue": "0x0000000000000000"
},{
  "Name": "A-N-13-Softmax + A-N-14-ArgMax",
  "LayerType": "LogSoftmaxTopK",
  "Inputs": [
  {
    "Name": "A-V-12-Add",
    "Location": "Device",
    "Dimensions": [1,10],
    "Format/Datatype": "Row major linear FP32"
  }],
  "Outputs": [
  {
    "Name": "(Unnamed Layer* 28) [TopK]_output_1",
    "Location": "Device",
    "Dimensions": [1,1],
    "Format/Datatype": "Row major linear FP32"
  },
  {
    "Name": "(Unnamed Layer* 28) [TopK]_output_2",
    "Location": "Device",
    "Dimensions": [1,1],
    "Format/Datatype": "Row major linear Int32"
  }],
  "ParameterType": "LogSoftmaxTopK",
  "Operation": "MAX",
  "TopK": 1,
  "HasLog": 0,
  "TacticValue": "0x00000000000003e9"
},{
  "Name": "(Unnamed Layer* 32) [Shuffle]",
  "LayerType": "NoOp",
  "Inputs": [
  {
    "Name": "(Unnamed Layer* 28) [TopK]_output_2",
    "Location": "Device",
    "Dimensions": [1,1],
    "Format/Datatype": "Row major linear Int32"
  }],
  "Outputs": [
  {
    "Name": "A-V-14-ArgMax",
    "Location": "Device",
    "Dimensions": [1],
    "Format/Datatype": "Row major linear Int32"
  }],
  "TacticValue": "0x0000000000000000"
}],
"Bindings": ["tensorX"
,"A-V-12-Add"
,"A-V-14-ArgMax"
]}
